DQN_in_SUMO/output_model/2023.05.06-17.52.23/policy_net.pth (torch, 7511 bytes, 6 tensors)

weight f4 [30, 4]
0	0x3e4595f1	0.1929548
1	0x3e187025	0.1488653
2	0xbf4e55e3	-0.805998
3	0xbe346a72	-0.1761873
4	0x3ed30dbe	0.41221422
5	0xbe24419c	-0.16040653
6	0xc052861e	-3.2894359
7	0xbe505103	-0.20343404
8	0x3e96a339	0.29421404
9	0x3e104498	0.14088666
10	0xbd442436	-0.047886096
11	0xbe1a9b34	-0.15098268
12	0xbcc4b116	-0.024010222
13	0xbc2351e7	-0.0099682575
14	0xbd897174	-0.067110926
15	0x3da1def9	0.07903857
16	0x3e9f78a1	0.3114672
17	0xbe2c209a	-0.16809312
18	0xc03c8984	-2.9458933
19	0xbf10a367	-0.5649933
20	0xbe6b7e42	-0.22997382
21	0x3dea09d7	0.11427658
22	0x400a63aa	2.162333
23	0x3ece051e	0.4023828
24	0xbd3ff579	-0.04686496
25	0x3e6aa169	0.22913136
26	0x3f94a462	1.1612666
27	0xbcf7fa7d	-0.03027081
28	0x3e67ae19	0.22625007
29	0x3ca9dfed	0.020736659
30	0x3f25bf92	0.6474544
31	0x3ef673f5	0.48135343
32	0x3ebe0763	0.3711501
33	0xbe8e6837	-0.27813885
34	0xc0718117	-3.773504
35	0xbf4ef2e8	-0.80839396
36	0xbc4f4df3	-0.012652862
37	0x3c1f90a5	0.009739076
38	0x3fd5192d	1.6648308
39	0x3ed503e2	0.41604525
40	0x3e47e79c	0.19521946
41	0x3dc217a8	0.09477168
42	0xbf825664	-1.0182614
43	0xbeace3c0	-0.3376751
44	0x3ccba0ac	0.024856888
45	0xbd122816	-0.03568276
46	0x3c259af9	0.010107749
47	0xb9b373b8	-0.00034227758
48	0xbe7057d4	-0.23471004
49	0x3e04ecfe	0.1298103
50	0x3ff08b93	1.8792595
51	0x3ee6c34e	0.4507088
52	0xbe80849e	-0.2510118
53	0x3e490ee4	0.19634587
54	0x4002f7ce	2.0463748
55	0x3ecc7372	0.39931828
56	0xbe601aaf	-0.21885179
57	0x3e8015d7	0.25016662
58	0x3fa82f0e	1.313936
59	0x3cc30670	0.02380678
60	0x3e523808	0.20529187
61	0x3c7b823b	0.015350874
62	0xbf92f6e6	-1.1481597
63	0xbe6d80c3	-0.2319365
64	0xbd5ef9e5	-0.054437537
65	0xbdbb8f00	-0.091581345
66	0x3cc01556	0.023447674
67	0xbe2200b2	-0.15820578
68	0xbc8f28c9	-0.017475503
69	0x3d7e7295	0.062120993
70	0x3ea6182e	0.32440323
71	0xbdbbb047	-0.091644816
72	0x3e52d415	0.20588715
73	0xbcf10868	-0.029422954
74	0x3f61930d	0.88115007
75	0x3ea00f99	0.312619
76	0x3e16c7c7	0.14724647
77	0xbdb23112	-0.08700766
78	0xc023d831	-2.5600703
79	0xbeddc087	-0.4331095
80	0x3e889acd	0.26680604
81	0x3dd4ae43	0.103848
82	0xbf5ccfe1	-0.862547
83	0xbe83d475	-0.2574803
84	0x3e977636	0.29582375
85	0x3d60e45b	0.054905277
86	0xbf088c96	-0.5333952
87	0xbe55de61	-0.20885612
88	0xbe0bff74	-0.13671666
89	0xbc2bd02d	-0.010486645
90	0x3fc53b3d	1.5408703
91	0x3ee4d8a4	0.44696534
92	0x3f24bc30	0.6434965
93	0xbf023549	-0.50862557
94	0xc0735556	-3.8020835
95	0xbe9c206c	-0.30493486
96	0xbd9390c9	-0.0720535
97	0xbc195e56	-0.00936087
98	0x3d5655a1	0.052327756
99	0xbe01946d	-0.12654276
100	0x3f17c6cb	0.5928771
101	0x3ee1ab80	0.44076157
102	0x3fc67aac	1.5506186
103	0x3ec347bd	0.3814067
104	0x3d03f2b2	0.032213874
105	0xbd234a37	-0.0398657
106	0xbf0f4e1e	-0.5597857
107	0xbe3bb1fb	-0.18329613
108	0xbd389b8f	-0.045070227
109	0xbd66242b	-0.056186836
110	0x3d5d6860	0.054054618
111	0xbdce1084	-0.10061744
112	0x3c5dc7d4	0.013536412
113	0xbdc6e0dc	-0.09710857
114	0xbba581be	-0.005050867
115	0x3d746a13	0.059671473
116	0xbcbff47a	-0.023432005
117	0x3d1f0732	0.03882522
118	0x3e18ae45	0.14910229
119	0xbe5fb4db	-0.21846335

bias f4 [30]
0	0x3f12e5fd	0.57382184
1	0x3f5eece5	0.8708022
2	0xbe805f7b	-0.25072846
3	0xbe5cb03a	-0.215516
4	0xbf3c3353	-0.73515815
5	0x3f6e091a	0.9298264
6	0x3f19e3f0	0.6011343
7	0xbf078efd	-0.5295256
8	0xbf7cd67b	-0.9876477
9	0x3f7437c4	0.9539759
10	0x3f6253d2	0.8840915
11	0xbe5bce96	-0.21465525
12	0x3f6c559e	0.9231814
13	0xbf0262a5	-0.5093177
14	0x3f0094d3	0.5022709
15	0x3f3e22c5	0.74271804
16	0xbeac5386	-0.33657473
17	0x3f72c0f4	0.94825673
18	0xbf03b7cb	-0.5145232
19	0xbf1eba01	-0.6200257
20	0x3f2a687d	0.66565686
21	0x3f650fe3	0.89477366
22	0x3f85a9cf	1.0442446
23	0x3f824133	1.0176147
24	0xbebfca73	-0.37459144
25	0xbe762f29	-0.24041428
26	0x3f67095b	0.9024865
27	0xbe7f4d3c	-0.24931806
28	0xbeaa38a7	-0.33246347
29	0x3f4b7b01	0.79484564

weight f4 [30, 30]
0	0xbd4d5ea3	-0.05013908
1	0xbc9220fc	-0.017837994
2	0x3d81c988	0.06337267
3	0x3bf3ceb5	0.007440413
4	0xbe2ccaba	-0.16874209
5	0xbbed1f64	-0.007236408
6	0x3defe570	0.117136836
7	0xbdd01c76	-0.101616785
8	0xbab651e5	-0.0013909905
9	0xbe7d2ad6	-0.24723372
10	0xbd84d3d6	-0.06485717
11	0x3daa3ab0	0.08311975
12	0xbcdf024e	-0.027222779
13	0xbd81f5e7	-0.0634573
14	0x3d9f2b7b	0.07771965
15	0xbce59188	-0.028023496
16	0xbe1b7d95	-0.15184624
17	0xbe0af57b	-0.13570206
18	0x3cb4d730	0.022075266
19	0xbcbc3a7f	-0.022977112
20	0xbd119cb5	-0.035549838
21	0xbda9c334	-0.08289185
22	0x3e090fee	0.13384983
23	0xbd6f871f	-0.05847847
24	0xbe56830f	-0.20948432
25	0x3d61fad7	0.05517086
26	0xbd85e4b9	-0.06537766
27	0x3d941518	0.07230586
28	0x3c6a0427	0.014283217
29	0xbd4c7a5e	-0.049921386
30	0xbcd29411	-0.02570537
31	0x3da4f871	0.08055199
32	0xbe229c14	-0.15879852
33	0xbd3d54ac	-0.046223328
34	0xbd06710e	-0.03282266
35	0x3de7a661	0.11311031
36	0xbdcd2ceb	-0.10018333
37	0x3bd43dd8	0.006477099
38	0xbd7edcb5	-0.0622222
39	0xbdd4a7ff	-0.10383605
40	0xbdbd0ad3	-0.0923058
41	0x3cb4b4eb	0.022058925
42	0xbd8eb21d	-0.06967566
43	0xbd299bb9	-0.041408274
44	0xbe022478	-0.12709224
45	0xbd4164e0	-0.047215343
46	0x3d5155db	0.05110727
47	0xbc4e38b2	-0.012586759
48	0xbdcf258e	-0.10114585
49	0xbd89ba87	-0.067250304
50	0x3d7f1158	0.0622724
51	0x3b7c6180	0.0038510263
52	0xbd42950c	-0.047505423
53	0xbe7f8fb2	-0.24957159
54	0xbd726927	-0.059182312
55	0xbd35dd92	-0.04440076
56	0xbc097b06	-0.0083911475
57	0xbce99135	-0.028511623
58	0x3d9df2e9	0.07712347
59	0x3d21ade6	0.039472483
60	0x3d9eca88	0.077534735
61	0xbc9b61cd	-0.018967533
62	0x3c466e23	0.01211122
63	0x3d80cb2f	0.06288754
64	0x3d3dbdcd	0.046323586
65	0xbca7a233	-0.020463085
66	0x3d8bc79f	0.06825184
67	0xbd7c159a	-0.06154404
68	0xbe1f4ad9	-0.15555896
69	0xbe026dea	-0.12737241
70	0xbe40bef1	-0.18822838
71	0xbdbb3466	-0.091408536
72	0xbd0431c0	-0.032274008
73	0xbd6aea03	-0.057352077
74	0xbcbdec76	-0.023184042
75	0x3dbfdce5	0.09368304
76	0x3da6da60	0.081471205
77	0xbe2f4ac7	-0.17118369
78	0xbdc7bace	-0.09752427
79	0x3dce96f2	0.10087384
80	0xbe2f29e4	-0.17105824
81	0xbd7e10e7	-0.062027838
82	0xbda2c361	-0.07947422
83	0xbca58075	-0.020202855
84	0xbd582ed5	-0.052779038
85	0x3d4c6dcf	0.04990941
86	0xbe0b6794	-0.1361373
87	0x3e584f54	0.21124011
88	0x3b7b510f	0.0038347875
89	0x3d86eadf	0.06587767
90	0x3e8df76d	0.27727833
91	0x3efbd5f5	0.49186674
92	0xbde0b1ca	-0.109714106
93	0x3de199a0	0.1101563
94	0xc0f84d2c	-7.7594204
95	0x3ebc43ef	0.3677058
96	0x3f0ba19f	0.5454349
97	0x3f1ff503	0.62483233
98	0xc0ded075	-6.9629464
99	0x3ef8060b	0.4844211
100	0x3e36bf97	0.17846523
101	0xbd8f55c9	-0.06998784
102	0x3ee87d0c	0.45407903
103	0x3f156c4f	0.5836839
104	0x3ed60480	0.41800308
105	0x3ebb6eb4	0.36607897
106	0xbe705646	-0.2347041
107	0x3e6d56be	0.23177621
108	0xbe070008	-0.13183606
109	0xc0c6dda4	-6.2145557
110	0x3e7d0e25	0.24712427
111	0x3ea03dff	0.312973
112	0x3eda72b3	0.42665634
113	0x3f09859d	0.537195
114	0xbc0c4ea6	-0.008563673
115	0x3ec88aa5	0.39168277
116	0x3e8ba530	0.27274466
117	0xbcd784c8	-0.026308432
118	0x3d967536	0.07346575
119	0x3ec46f1b	0.38366017
120	0x3e0a4284	0.13501936
121	0xbdc478be	-0.09593342
122	0x3d865dee	0.065608844
123	0x3dd7c162	0.10534932
124	0xbda828cc	-0.082109064
125	0xbded34f6	-0.11582367
126	0xbbd06a70	-0.0063603446
127	0x3ad7ae00	0.0016455054
128	0x3e359999	0.17734374
129	0xbcd5aa40	-0.026082158
130	0xbd9cdf21	-0.07659746
131	0xbac2857b	-0.0014840806
132	0x3adfbe1f	0.001707021
133	0xbe11b3cf	-0.14228748
134	0x3cd5212c	0.026016794
135	0xbe01c57c	-0.1267299
136	0xbdaa5283	-0.08316519
137	0x3d7694d0	0.060200512
138	0xbcfafdd6	-0.030638617
139	0x3ddf4314	0.10901466
140	0xbd858cd3	-0.06521001
141	0xbc731715	-0.014837046
142	0x3d94b2c6	0.07260661
143	0x3dae9fc3	0.08526566
144	0xbd9ca759	-0.076491065
145	0xbdafb394	-0.08579174
146	0xbcf2af83	-0.029624706
147	0xbd6a3529	-0.057179604
148	0x3e18f8f3	0.14938717
149	0x3c8f05e7	0.01745887
150	0x3e7b6e5b	0.24553816
151	0xbc82789a	-0.015926648
152	0xbe0c9dd6	-0.13732085
153	0x3c7ed1dc	0.015552964
154	0xc0942884	-4.6299458
155	0x3f1de441	0.6167641
156	0x3ee0c509	0.43900326
157	0xbe3085c0	-0.17238522
158	0xc0709899	-3.7593138
159	0x3f513064	0.81714463
160	0x3e75ff1d	0.24023099
161	0xbd42c400	-0.0475502
162	0x3f6c6e21	0.92355543
163	0xbfd11bd0	-1.6336613
164	0x3f22faea	0.63664114
165	0x3eae1804	0.34002697
166	0x3c5a6e9f	0.013332038
167	0x3ee2d420	0.44302464
168	0xbf41c07b	-0.75684327
169	0xc0a43879	-5.1318936
170	0x3e91e756	0.28496808
171	0x3ed64815	0.4185187
172	0x3f541c14	0.82855344
173	0x3eff551a	0.49869615
174	0x3d636abc	0.05552171
175	0x3eb49d28	0.3527615
176	0x3f007024	0.50171113
177	0xbdf740b9	-0.12072892
178	0x3e39fa09	0.18161787
179	0x3ee2757d	0.4423026
180	0x3f086a15	0.5328687
181	0x3ee78245	0.45216575
182	0xbe9e0a33	-0.30867156
183	0x3de57de0	0.112056494
184	0xbf4b8388	-0.79497576
185	0x3f4b4874	0.7940743
186	0x3f1bc87d	0.60852796
187	0xbf1f694f	-0.62270063
188	0xbbea8510	-0.0071569756
189	0x3f5a1918	0.8519454
190	0x3ed02aff	0.40657803
191	0xbc55b81b	-0.013044382
192	0x3f789751	0.9710589
193	0xbfe46c35	-1.7845522
194	0x3ecbcbe4	0.39803994
195	0x3f3b8bd5	0.7326024
196	0xbdaa911b	-0.08328458
197	0x3f18837e	0.5957564
198	0xbef2b393	-0.4740263
199	0xbfc1ccb8	-1.51406
200	0x3f337a92	0.701089
201	0x3f043979	0.51650196
202	0x3f544759	0.8292137
203	0x3f265a75	0.64981776
204	0x3dd8b1eb	0.1058081
205	0x3ee02e38	0.43785262
206	0x3f189f22	0.5961782
207	0x3b330eb9	0.0027322008
208	0xbd6dcb01	-0.058054928
209	0x3f04d625	0.5188926
210	0x3f0d5065	0.552008
211	0x3ef46b35	0.47738042
212	0xbd0d86c3	-0.034552347
213	0xbd224bab	-0.039622944
214	0xbf3416d5	-0.7034734
215	0x3f679f15	0.90477115
216	0x3edf6851	0.43634275
217	0xbf4fd83f	-0.8118934
218	0x3e1444d0	0.14479375
219	0x3f35f2dd	0.71073705
220	0x3f20f3f3	0.62872237
221	0x3d94d44e	0.072670564
222	0x3f3020d3	0.68800086
223	0xbfe816a5	-1.813191
224	0x3e89da27	0.2692425
225	0x3f0dbd5c	0.55367064
226	0x3b9ce81f	0.004788413
227	0x3ea70b74	0.32625926
228	0xbf124338	-0.5713382
229	0xbfa7b584	-1.3102269
230	0x3f178f8a	0.592034
231	0x3f0669d5	0.52505237
232	0x3f3591aa	0.7092539
233	0x3f246dba	0.6422993
234	0x3dd7b463	0.10532453
235	0x3ea8249d	0.32840434
236	0x3f0e7a4b	0.55655354
237	0x3a64ab4b	0.00087230344
238	0x3e42cc6d	0.19023295
239	0x3ee130f0	0.4398265
240	0x3d84a5a3	0.06476905
241	0xbe1d674a	-0.15371433
242	0x3c1541ba	0.009109909
243	0x3e066888	0.13125813
244	0x3d56faf8	0.052485436
245	0x3db6295e	0.08894609
246	0x3d514bad	0.05109756
247	0x3d283e7a	0.041075207
248	0x3d947f91	0.07250894
249	0xbcdcfed1	-0.026976975
250	0xbda54299	-0.08069343
251	0xbe1b6ed6	-0.15179
252	0x3cc320eb	0.023819407
253	0x3d314220	0.043275952
254	0x3e1f1953	0.15537004
255	0x3da1d394	0.079016834

bias f4 [30]
0	0xbe18b5ea	-0.14913145
1	0xbde9dd3e	-0.11419152
2	0x3da18892	0.07887377
3	0x3ebdc67d	0.37065497
4	0xbd5f3420	-0.05449307
5	0x3ee2eb11	0.44319966
6	0x3ee3ed92	0.4451719
7	0x3ef2f0f4	0.47449458
8	0x3a058c48	0.0005094451
9	0x3df986ac	0.1218389
10	0xbd02e709	-0.031958614
11	0xbdbb3748	-0.091414034
12	0x3ef199a9	0.47187546
13	0x3e473f9d	0.1945786
14	0x3d97df1c	0.074156016
15	0xbe3e6b97	-0.1859573
16	0xbe22e81d	-0.15908857
17	0xbb804903	-0.0039149537
18	0x3f0e8989	0.5567861
19	0x3e89fea4	0.26952088
20	0xbe2bebda	-0.16789189
21	0xbe031b17	-0.12803303
22	0x3e973558	0.29532886
23	0xbd7e7cd2	-0.062130757
24	0x3e5ee9c2	0.21768859
25	0x3e25ad92	0.16179493
26	0x3e7c0428	0.2461096
27	0xbc8addde	-0.016951498
28	0x3eae7216	0.34071416
29	0xbdf3b5f0	-0.11899936

weight f4 [2, 30]
0	0x3d72b1f8	0.059251755
1	0x3d90d7ef	0.07072436
2	0xbce496e1	-0.027903976
3	0xbfa01f8d	-1.2509629
4	0xbe13b841	-0.14425756
5	0x3f7ad8b1	0.97986895
6	0x3f8f1424	1.1178021
7	0x3f46093f	0.7735786
8	0xbdf5e892	-0.1200725
9	0xbd6d6ed3	-0.05796702
10	0x3db4ead4	0.088338524
11	0x3db31657	0.08744495
12	0x3f339eeb	0.70164365
13	0x3f076368	0.52886057
14	0xc082196d	-4.0656037
15	0xbd3c1e76	-0.045927487
16	0x3c4717ab	0.012151639
17	0xbda3b494	-0.07993427
18	0x3f63c3e8	0.88970804
19	0xc03aeb52	-2.9206128
20	0xbdc9585e	-0.09831308
21	0x3cb4557a	0.022013415
22	0xbd59c5cf	-0.05316716
23	0x3df4a9fb	0.11946484
24	0x3f183e7e	0.59470356
25	0x3f06a171	0.5259009
26	0x3f49734b	0.7869155
27	0x3d11c552	0.03558857
28	0x3f3a169c	0.7269075
29	0xbe0c13a0	-0.13679361
30	0x3d94e8f3	0.07270994
31	0xbc04bace	-0.008101178
32	0x3d12ff20	0.035887837
33	0x402f6ef5	2.7411473
34	0x3d7df209	0.0619984
35	0x3fc2402e	1.5175836
36	0x3eecf444	0.4628011
37	0x3e46019b	0.1933655
38	0x3d8a261b	0.06745549
39	0x3bea9d8f	0.0071598957
40	0xbd77da1d	-0.060510743
41	0xbe0fa224	-0.14026695
42	0x3eead846	0.4586813
43	0x3ec1cd53	0.37851962
44	0x3f3136ee	0.6922444
45	0x3d77983e	0.060447924
46	0x3c98fb95	0.018674651
47	0xbd66377d	-0.05620526
48	0x3e492b21	0.19645359
49	0xbfa8f349	-1.3199245
50	0xbb68b255	-0.0035506685
51	0xbd2d4f38	-0.042311877
52	0xbffdaf95	-1.9819208
53	0x3d2748e9	0.040841017
54	0x3ed47fdf	0.41503808
55	0x3f022d5d	0.5085047
56	0x3ed6b35a	0.4193371
57	0xbdc6440c	-0.09680948
58	0x3e8e5d31	0.27805474
59	0x3d496ddb	0.049177032

bias f4 [2]
0	0x3e801072	0.25012547
1	0x3e1a1d9e	0.1505036
