DQN_in_SUMO/output_model/2023.05.06-17.52.23/target_net.pth (torch, 7511 bytes, 6 tensors)

weight f4 [30, 4]
0	0x3e42dcb7	0.19029509
1	0x3e175524	0.14778572
2	0xbf4daae9	-0.80338913
3	0xbe3573e1	-0.17719986
4	0x3ed13aa1	0.40865043
5	0xbe28944a	-0.16462818
6	0xc051e4e4	-3.2795954
7	0xbe56e108	-0.2098428
8	0x3e8fb2fa	0.28066236
9	0x3e072327	0.13197003
10	0xbd720453	-0.059086155
11	0xbe1918a0	-0.149508
12	0xbcc51592	-0.024058137
13	0xbc23a54b	-0.009988139
14	0xbd89b797	-0.0672447
15	0x3da231a0	0.079196215
16	0x3e9f1b57	0.31075546
17	0xbe2ca970	-0.1686151
18	0xc03bedff	-2.9364011
19	0xbf10b53d	-0.5652655
20	0xbe67ab43	-0.22623925
21	0x3def3e86	0.11681847
22	0x4009b2e7	2.1515443
23	0x3ecdc01d	0.40185633
24	0xbd284c5f	-0.04108846
25	0x3e6b2826	0.22964534
26	0x3f94e33a	1.1631844
27	0xbceb51ee	-0.02872559
28	0x3e686a81	0.22696878
29	0x3c1932e4	0.009350512
30	0x3f23d1a3	0.63991755
31	0x3ef9aafe	0.4876327
32	0x3ebc506d	0.3678011
33	0xbe906eff	-0.28209683
34	0xc070afdc	-3.7607336
35	0xbf4f1740	-0.8089485
36	0xbc310977	-0.010805479
37	0x3c192ac0	0.009348571
38	0x3fd38613	1.6525291
39	0x3ed48645	0.4150869
40	0x3e44c47d	0.1921558
41	0x3dc0c350	0.09412253
42	0xbf82202d	-1.0166069
43	0xbead5eea	-0.33861476
44	0x3ccc08ec	0.024906598
45	0xbd1272ca	-0.035754003
46	0x3c25efc4	0.010127965
47	0xb9b3cf87	-0.0003429616
48	0xbe6cd51a	-0.23128167
49	0x3e097aee	0.134258
50	0x3fef2033	1.8681701
51	0x3ee55306	0.44789904
52	0xbe7e6769	-0.24844135
53	0x3e5d1147	0.21588622
54	0x4001a769	2.025843
55	0x3ed556d3	0.41667804
56	0xbe5899b3	-0.21152382
57	0x3e80cfed	0.25158635
58	0x3fa817f8	1.3132315
59	0x3cd670d4	0.026176848
60	0x3e51340b	0.20430009
61	0x3c707620	0.014676601
62	0xbf926891	-1.1438161
63	0xbe6fa0e5	-0.2340122
64	0xbd5f6be1	-0.05454624
65	0xbdbbeecd	-0.09176407
66	0x3cc07778	0.023494467
67	0xbe225378	-0.15852153
68	0xbc9b6b01	-0.018971922
69	0x3d7a7fef	0.061157163
70	0x3ea72c7f	0.32651135
71	0xbdba2d61	-0.090906866
72	0x3e556eb7	0.20843016
73	0xbd2539d4	-0.040338352
74	0x3f6037e3	0.87585276
75	0x3e9e7b3c	0.30953395
76	0x3e0fc5e9	0.1404034
77	0xbdb5d14f	-0.08877813
78	0xc02367c8	-2.5532093
79	0xbeddaf9a	-0.43298036
80	0x3e866bae	0.26254028
81	0x3dd181e1	0.102298506
82	0xbf5c7664	-0.8611815
83	0xbe84580a	-0.25848418
84	0x3e971336	0.29506844
85	0x3d5f5cc5	0.05453183
86	0xbf07d79f	-0.53063387
87	0xbe5754e2	-0.21028474
88	0xbe0e7990	-0.1391356
89	0xbc628e63	-0.013827893
90	0x3fc34cb2	1.525778
91	0x3ee3819e	0.44434828
92	0x3f24766c	0.642432
93	0xbf04421b	-0.5166337
94	0xc0733c1c	-3.8005438
95	0xbe9bc757	-0.30425522
96	0xbd93dc3f	-0.07219743
97	0xbc19ace7	-0.009379602
98	0x3d56c352	0.052432366
99	0xbe01d698	-0.12679517
100	0x3f177ed1	0.5917788
101	0x3ededdf4	0.43528712
102	0x3fc945bf	1.572441
103	0x3ebfc6fe	0.37456506
104	0x3cf98ab2	0.030461643
105	0xbd26cbb5	-0.040721614
106	0xbf0e987a	-0.5570141
107	0xbe3c3e34	-0.18383104
108	0xbd38f9d8	-0.045160145
109	0xbd6699c6	-0.056298994
110	0x3d5dd98b	0.054162543
111	0xbdce79ce	-0.10081826
112	0x3c5e3967	0.0135634905
113	0xbdc746c1	-0.09730292
114	0xbba5d684	-0.0050609726
115	0x3d74e716	0.059790693
116	0xbcb6a65d	-0.022296125
117	0x3d1dfcd9	0.038571212
118	0x3e1c99c4	0.15293032
119	0xbe5fdd37	-0.2186173

bias f4 [30]
0	0x3f124cde	0.5714854
1	0x3f5e7c52	0.8690845
2	0xbe6dfd13	-0.23241071
3	0xbe5d2111	-0.21594645
4	0xbf3a74bf	-0.7283439
5	0x3f6ce204	0.9253237
6	0x3f190705	0.59776336
7	0xbf08a82e	-0.5338162
8	0xbf7a84a1	-0.97858626
9	0x3f734c14	0.9503796
10	0x3f61e96c	0.882468
11	0xbe5c3ee8	-0.21508372
12	0x3f6b7675	0.91977626
13	0xbf024261	-0.50882536
14	0x3eff87c4	0.49908268
15	0x3f3d8773	0.74034804
16	0xbeacab88	-0.33724618
17	0x3f723966	0.94618833
18	0xbf0284d1	-0.5098391
19	0xbf1da8c1	-0.61585623
20	0x3f29e28c	0.6636131
21	0x3f64875f	0.8926906
22	0x3f856205	1.0420538
23	0x3f81b315	1.0132776
24	0xbec02c82	-0.37533957
25	0xbe7c0bbd	-0.24613853
26	0x3f668639	0.9004856
27	0xbe7fd027	-0.24981748
28	0xbeaa8fc8	-0.3331282
29	0x3f4acbab	0.7921702

weight f4 [30, 30]
0	0xbd4da376	-0.050204717
1	0xbc92234a	-0.017839093
2	0x3d821dd9	0.06353349
3	0x3bf44b4e	0.007455266
4	0xbe2d231a	-0.16907921
5	0xbbec7713	-0.007216343
6	0x3df0724f	0.11740553
7	0xbdd07535	-0.101786055
8	0xbab6af4f	-0.0013937744
9	0xbe7da32c	-0.24769276
10	0xbd850581	-0.064951904
11	0x3daa91d1	0.083285935
12	0xbcdf2bea	-0.02724262
13	0xbd823839	-0.0635838
14	0x3d9f8f18	0.07790965
15	0xbce5be94	-0.028044976
16	0xbe1bcd00	-0.1521492
17	0xbe0b3359	-0.13593806
18	0x3cb533c4	0.02211941
19	0xbcbc9af1	-0.0230231
20	0xbd11c32f	-0.035586532
21	0xbdaa07f0	-0.08302295
22	0x3e095ea4	0.13415009
23	0xbd6fdd56	-0.05856069
24	0xbe56f0c6	-0.20990285
25	0x3d629298	0.055315584
26	0xbd861713	-0.0654737
27	0x3d9460ad	0.07245002
28	0x3c6a7bf5	0.01431178
29	0xbd4cbe9e	-0.049986474
30	0xbcd2ffa7	-0.02575667
31	0x3da54cb3	0.0807127
32	0xbe22ef50	-0.15911603
33	0xbd3db56b	-0.04631559
34	0xbd06b5ab	-0.032888096
35	0x3de81cc2	0.1133361
36	0xbdcd95f1	-0.10038365
37	0x3bd4aa52	0.0064900303
38	0xbd7f5f0f	-0.062346514
39	0xbdd514e1	-0.10404373
40	0xbdbd6b63	-0.09248998
41	0x3cb5117c	0.022103064
42	0xbd8efb39	-0.06981511
43	0xbd29f260	-0.041490912
44	0xbe026704	-0.1273461
45	0xbd41c7bb	-0.04730962
46	0x3d51c0e9	0.051209364
47	0xbc4ea21c	-0.012611892
48	0xbdcf8f70	-0.101347804
49	0xbd8a00ef	-0.06738459
50	0x3d7f93ef	0.06239694
51	0x3b7ce2a6	0.0038587241
52	0xbd42f8a0	-0.04760039
53	0xbe80095e	-0.25007147
54	0xbd72e504	-0.059300438
55	0xbd363a88	-0.044489413
56	0xbc09c12e	-0.008407874
57	0xbcea0896	-0.028568547
58	0x3d9e43cd	0.07727776
59	0x3d220075	0.039551217
60	0x3d9f25fa	0.07770915
61	0xbc9b87b8	-0.018985614
62	0x3c47258a	0.012154946
63	0x3d810d4c	0.06301364
64	0x3d3e1f0a	0.04641632
65	0xbca7ce5c	-0.020484142
66	0x3d8c198b	0.068408094
67	0xbd7c9696	-0.061667047
68	0xbe1f9c85	-0.15587051
69	0xbe02ab9f	-0.12760781
70	0xbe411c85	-0.18858536
71	0xbdbb941e	-0.091591105
72	0xbd0460ae	-0.032318763
73	0xbd6b620c	-0.05746655
74	0xbcbe2444	-0.023210652
75	0x3dc04953	0.093889855
76	0x3da72fec	0.08163437
77	0xbe2f9f20	-0.17150545
78	0xbdc820d5	-0.09771887
79	0x3dcf00bc	0.10107562
80	0xbe2f7e39	-0.17137994
81	0xbd7e7e1b	-0.062131982
82	0xbda30c44	-0.07961324
83	0xbca5abda	-0.020223547
84	0xbd589d5a	-0.052884437
85	0x3d4ceafe	0.050028794
86	0xbe0ba9e3	-0.13639025
87	0x3e58bde0	0.21166182
88	0x3b7bd186	0.0038424446
89	0x3d873a75	0.06602947
90	0x3e8cc172	0.27491337
91	0x3ef7dcd2	0.4841066
92	0xbdd9038a	-0.10596378
93	0x3de20ce7	0.11037617
94	0xc0f5c054	-7.6797276
95	0x3eba366b	0.36369643
96	0x3f0bb55c	0.5457361
97	0x3f253f32	0.64549553
98	0xc0dc6f05	-6.888552
99	0x3ef69caa	0.481664
100	0x3e336614	0.17519408
101	0xbd8f9ef7	-0.07012742
102	0x3ee600ac	0.44922388
103	0x3f1677c0	0.58776474
104	0x3ed4c14f	0.41553733
105	0x3eb98319	0.36232832
106	0xbe70d138	-0.2351731
107	0x3e692f35	0.22771914
108	0xbdf88eb6	-0.12136595
109	0xc0c495c8	-6.143284
110	0x3e7bbda7	0.24584065
111	0x3e9f9b69	0.31173256
112	0x3ed7e28e	0.42165035
113	0x3f07d05a	0.53052294
114	0xbc0c9647	-0.008580751
115	0x3ec6ef79	0.38854578
116	0x3e88cdc7	0.26719496
117	0xbcd7f313	-0.026361024
118	0x3d96c236	0.073612615
119	0x3ec2c672	0.38042027
120	0x3e0a9277	0.13532434
121	0xbdc4af62	-0.09603764
122	0x3d867325	0.06564931
123	0x3dd82fd9	0.10556001
124	0xbda88a82	-0.08229543
125	0xbdedae57	-0.11605518
126	0xbbd05e39	-0.0063588885
127	0x3ad81c76	0.0016487974
128	0x3e35fe30	0.17772746
129	0xbcd6176a	-0.026134212
130	0xbd9d27b4	-0.076735884
131	0xbac2e90c	-0.0014870479
132	0x3ae03086	0.0017104305
133	0xbe11fe7d	-0.14257236
134	0x3cd5bb0f	0.026090173
135	0xbe02007a	-0.12695494
136	0xbdaaa9a3	-0.08333137
137	0x3d77206e	0.06033366
138	0xbcfb7e3d	-0.030699844
139	0x3de0506a	0.10952838
140	0xbd85a975	-0.06526462
141	0xbc735493	-0.014851707
142	0x3d94fefe	0.072751984
143	0x3daf1451	0.08548797
144	0xbd9cf77a	-0.0766439
145	0xbdb00d5b	-0.08596297
146	0xbcf309cc	-0.029667757
147	0xbd6aacfc	-0.057293877
148	0x3e194748	0.14968598
149	0x3c8f74f2	0.017511819
150	0x3e789d12	0.24278668
151	0xbc9c4a8a	-0.019078512
152	0xbe02d1ce	-0.12775347
153	0x3c7f542f	0.015584036
154	0xc092c5ca	-4.586644
155	0x3f1cfa7f	0.61319727
156	0x3edf3a95	0.43599382
157	0xbe26d26a	-0.16291204
158	0xc06dd005	-3.7158215
159	0x3f508365	0.8145049
160	0x3e7332bb	0.23749821
161	0xbd432799	-0.047645185
162	0x3f6ba07b	0.9204175
163	0xbfd01d02	-1.6258852
164	0x3f221c5d	0.6332453
165	0x3eaccc8d	0.3374981
166	0x3c5ade4e	0.013358666
167	0x3ee1433c	0.43996608
168	0xbf3ff0b8	-0.7497668
169	0xc0a2db9c	-5.089308
170	0x3e90b1dd	0.282607
171	0x3ed518b8	0.4162042
172	0x3f535cda	0.82563555
173	0x3efea6c1	0.49736598
174	0x3d63def7	0.055632558
175	0x3eb54df7	0.35411045
176	0x3eff7c58	0.49899554
177	0xbdf7bf1a	-0.120969966
178	0x3e3a590a	0.18198028
179	0x3ee110cc	0.43958127
180	0x3f07dabb	0.5306813
181	0x3ee676c6	0.45012492
182	0xbe978c4b	-0.29599223
183	0x3de5f359	0.112280555
184	0xbf4b9b2e	-0.7953366
185	0x3f4a6a31	0.79068285
186	0x3f1b5255	0.60672504
187	0xbf206a9e	-0.62662685
188	0xbbbff30e	-0.005857832
189	0x3f592f02	0.84837353
190	0x3ecefffa	0.4042967
191	0xbc56254a	-0.013070414
192	0x3f77dfb0	0.96825695
193	0xbfe30fc7	-1.773919
194	0x3ecb3530	0.39689016
195	0x3f3b1edf	0.7309398
196	0xbdaae842	-0.08345081
197	0x3f181ad4	0.59415936
198	0xbef197b5	-0.47186056
199	0xbfc20ee1	-1.5160791
200	0x3f32f01a	0.69897616
201	0x3f0391e7	0.51394504
202	0x3f538c3c	0.82635856
203	0x3f25dd33	0.6479065
204	0x3dd920a3	0.10601928
205	0x3ee233e4	0.44180214
206	0x3f183e12	0.5946971
207	0x3b336a81	0.0027376714
208	0xbd6e4484	-0.05817081
209	0x3f0463e6	0.5171493
210	0x3f0c8000	0.5488281
211	0x3ef2eff7	0.47448704
212	0xbca462c4	-0.020066626
213	0xbd229ee5	-0.039702315
214	0xbf34ee66	-0.7067627
215	0x3f66ce3c	0.9015844
216	0x3edde252	0.4333673
217	0xbf523715	-0.821153
218	0x3e12a5d9	0.14321078
219	0x3f34de9a	0.70652163
220	0x3f203566	0.6258148
221	0x3d952086	0.07281594
222	0x3f2f49e3	0.6847212
223	0xbfe69e37	-1.8017033
224	0x3e88f26d	0.26747456
225	0x3f0cf49e	0.55060756
226	0x3b9d384a	0.00479797
227	0x3ea58a47	0.3233206
228	0xbf120760	-0.57042503
229	0xbfa84def	-1.3148783
230	0x3f16a8a5	0.5885108
231	0x3f057858	0.52136755
232	0x3f34bd7c	0.7060163
233	0x3f23a4e0	0.63923454
234	0x3dd822d9	0.10553522
235	0x3eaa64a6	0.33279914
236	0x3f0ddbe8	0.55413675
237	0x3a652033	0.0008740455
238	0x3e43300b	0.19061296
239	0x3edfb99a	0.4369629
240	0x3d84e95c	0.06489822
241	0xbe1db7b4	-0.15402108
242	0x3c158dfd	0.009128091
243	0x3e06ad1e	0.13151976
244	0x3d5768cf	0.052590188
245	0x3db686d7	0.089124374
246	0x3d51b6af	0.05119961
247	0x3d28948c	0.04115729
248	0x3d94cb9c	0.07265398
249	0xbcdd6fbd	-0.02703082
250	0xbda59738	-0.08085483
251	0xbe1bbe3c	-0.15209287
252	0x3cc38498	0.023866937
253	0x3d319cb6	0.04336234
254	0x3e1f6ab8	0.15568054
255	0x3da22633	0.07917442

bias f4 [30]
0	0xbe18fad9	-0.14939441
1	0xbdea54f8	-0.11441988
2	0x3da1e570	0.0790509
3	0x3ebb1e7c	0.36546695
4	0xbd5fa152	-0.054597206
5	0x3ee13943	0.43989
6	0x3ee30142	0.44336897
7	0x3ef1ade7	0.4720299
8	0x3a05d0bc	0.0005104651
9	0x3dfa064c	0.12208232
10	0xbd0329f2	-0.032022424
11	0xbdbb9701	-0.09159661
12	0x3ef1182d	0.47088757
13	0x3e461c88	0.19346821
14	0x3d9f93e7	0.07791882
15	0xbe3ecceb	-0.18632858
16	0xbe233b61	-0.1594062
17	0xbb808a86	-0.0039227633
18	0x3f0deaeb	0.5543658
19	0x3e8b31d8	0.27186465
20	0xbe2c43c7	-0.1682273
21	0xbe035e08	-0.12828839
22	0x3e966d96	0.29380482
23	0xbd7efeee	-0.06225484
24	0x3e5e42f0	0.21705222
25	0x3e25511d	0.16144224
26	0x3e7a23cd	0.2442772
27	0xbc8b24bd	-0.016985292
28	0x3eae0b5e	0.33993047
29	0xbdf43293	-0.11923709

weight f4 [2, 30]
0	0x3d732e02	0.05937005
1	0x3d9121e4	0.07086542
2	0xbce50bae	-0.02795967
3	0xbfa01ee9	-1.2509433
4	0xbe1404e5	-0.14454992
5	0x3f79af73	0.9753334
6	0x3f8eade7	1.1146821
7	0x3f45097d	0.769676
8	0xbdf66657	-0.120312385
9	0xbd6de83c	-0.058082804
10	0x3db54768	0.0885151
11	0x3db3721f	0.08762001
12	0x3f32bce6	0.69819486
13	0x3f06780b	0.5252692
14	0xc0815d40	-4.042633
15	0xbd3c7ec6	-0.046019338
16	0x3c477d93	0.012175935
17	0xbda4085f	-0.08009409
18	0x3f62d127	0.8860039
19	0xc039bf3a	-2.9022965
20	0xbdc9bf36	-0.09850924
21	0x3cb4b1a8	0.02205737
22	0xbd6e9cd5	-0.058255035
23	0x3df5273c	0.11970374
24	0x3f175430	0.59112835
25	0x3f05cd64	0.52266526
26	0x3f488b6a	0.7833773
27	0x3d120ffd	0.03565978
28	0x3f391c5e	0.7230891
29	0xbe0c5b35	-0.13706668
30	0x3d9546cd	0.07288895
31	0xbc04fe8c	-0.008117329
32	0x3d134c82	0.035961635
33	0x402e54aa	2.7239175
34	0x3d7e70cf	0.0621193
35	0x3fc110ac	1.5083213
36	0x3eee23b3	0.4651161
37	0x3e4819a5	0.19541033
38	0x3d8a6ce4	0.067590505
39	0x3beb1577	0.0071741897
40	0xbd7858f1	-0.060631696
41	0xbe0feb78	-0.14054668
42	0x3eeb7f35	0.4599549
43	0x3ec22ea2	0.37926203
44	0x3f30e8b8	0.691051
45	0x3d781701	0.060568813
46	0x3c9949c8	0.01871194
47	0xbd66ad1f	-0.056317445
48	0x3e4b52e1	0.19855835
49	0xbfa88962	-1.3166926
50	0xbb692964	-0.003557765
51	0xbd2da7e8	-0.042396456
52	0xbffa88d8	-1.9573011
53	0x3d279e7c	0.040922627
54	0x3ed54a0c	0.41658056
55	0x3f02445a	0.50885546
56	0x3ed7987a	0.42108518
57	0xbdc6a951	-0.09700263
58	0x3e8f733f	0.28017613
59	0x3d49d4be	0.049275152

bias f4 [2]
0	0x3e7fa7ed	0.24966402
1	0x3e1adcee	0.1512334
